assets/data/marine_species_model.tflite (tflite, 17536 bytes, 6 tensors)

arith.constant f4 [98, 32]
0	0x3da6f749	0.08152635
1	0xbef8c75e	-0.48589605
2	0x3cbe0021	0.02319342
3	0xbdf58431	-0.11988104
4	0x3d7bb021	0.061447266
5	0xbedaeb9f	-0.4275789
6	0xbe0b89cf	-0.13626789
7	0x3d2c67a5	0.04209103
8	0x3c296a43	0.010340276
9	0x3e2c30d9	0.16815509
10	0xbdc17eb5	-0.094479956
11	0xbd2bbd02	-0.0419283
12	0xbdbb2286	-0.09137444
13	0xbdf84123	-0.12121799
14	0xbe08e95c	-0.1337027
15	0x3e7b5b7e	0.2454662
16	0xbdc8b2f4	-0.097997576
17	0xbe26efa8	-0.16302359
18	0x3e859a4a	0.26094276
19	0xbcae6d0c	-0.021292232
20	0x3e3ea6f7	0.1861838
21	0xbefcdd20	-0.49387455
22	0x3e5b1ee3	0.21398501
23	0xbe384499	-0.17994918
24	0xbc64b1a0	-0.013958365
25	0x3cc896bb	0.024485936
26	0x3d43447d	0.047672737
27	0xbcc27705	-0.023738394
28	0xbe054cea	-0.13017622
29	0xbec2ad5e	-0.38022894
30	0x3d89761e	0.06711982
31	0xbddec7c0	-0.10877943
32	0xbaa53e25	-0.0012607021
33	0xbe969905	-0.2941362
34	0xbe563241	-0.20917608
35	0x3c4e4c84	0.012591485
36	0xbe00ec2d	-0.12590094
37	0xbe307398	-0.17231596
38	0x3d38e76a	0.04514257
39	0xbe12d5f1	-0.14339425
40	0xbe1d0f58	-0.15337884
41	0xbda12abe	-0.078694806
42	0xbdb1fbb9	-0.086905904
43	0xbe3364d4	-0.17518932
44	0x3c504a05	0.01271296
45	0x3e216c6f	0.1576402
46	0xbda5e21e	-0.08099769
47	0x3e53d66d	0.20687266
48	0xbdd1d2bd	-0.10245273
49	0xbb1189a4	-0.0022207284
50	0xbe6f27c3	-0.23355012
51	0xbd8cd0d3	-0.068757676
52	0xbe0c3606	-0.13692483
53	0xbe52b56a	-0.20577016
54	0x3e0a3372	0.13496187
55	0xbd238396	-0.039920412
56	0x3e1f9719	0.15584983
57	0x3d110eec	0.03541462
58	0xbf0189b3	-0.5060074
59	0x3de7194a	0.112841204
60	0xbec709f2	-0.38874775
61	0xbe8bb2ea	-0.27284938
62	0xbdc87b74	-0.09789172
63	0xbd599d46	-0.053128503
64	0xbcd1778f	-0.025569705
65	0xbed8976f	-0.42303035
66	0xbd6776a9	-0.056509648
67	0xbd3374ed	-0.04381268
68	0xbe11a224	-0.14222008
69	0x3df4bd36	0.119501516
70	0xbe4bef27	-0.19915448
71	0xbc8d81a1	-0.017273726
72	0x3d44c3af	0.04803818
73	0xbe19f8a2	-0.15036252
74	0xbe2f34b4	-0.17109948
75	0xbdadcc69	-0.08486254
76	0x3d7bf273	0.061510514
77	0x3db43056	0.08798282
78	0x3df25c62	0.11834027
79	0xbcac5efa	-0.021041382
80	0xbe009a82	-0.1255894
81	0xbdff88e6	-0.12477283
82	0xbd01ec7e	-0.031719677
83	0xbdd16f66	-0.10226326
84	0xbe0e5125	-0.13898142
85	0xbde6424d	-0.112431146
86	0xbd944dc5	-0.07241396
87	0xbe301cf6	-0.17198548
88	0x3e15c495	0.14625771
89	0xbe44a425	-0.19203241
90	0xbe502587	-0.20326816
91	0xbb207c5b	-0.0024488184
92	0xbeb4d8b1	-0.35321572
93	0xbd4c4bf1	-0.04987711
94	0x3d57b2d0	0.052660763
95	0xbe394a3f	-0.18094729
96	0x3d866059	0.065613456
97	0xbdf31628	-0.1186946
98	0x3bd1e165	0.006405043
99	0x3d9f52f1	0.07779492
100	0x3e09d27f	0.13459204
101	0xbe469100	-0.1939125
102	0x3e393b8a	0.18089119
103	0x3dcf7ee7	0.101316266
104	0x3c846e08	0.016165748
105	0x3c6f6157	0.01461061
106	0xbd0c3bdd	-0.034236778
107	0xbd9b4014	-0.07580581
108	0xbda3e7bd	-0.08003185
109	0xbd909a9c	-0.070607394
110	0x3dc5ae9a	0.09652443
111	0xbe22af20	-0.15887117
112	0xbe25378c	-0.1613447
113	0x3df94a88	0.12172419
114	0xbd3b8762	-0.045783408
115	0x3e48255f	0.19545506
116	0xbe08525e	-0.1331267
117	0x3dd4ed55	0.1039683
118	0x3e26acaa	0.16276804
119	0x3d78d63d	0.06075119
120	0xbd5c7570	-0.053822935
121	0xbdd8c62c	-0.10584673
122	0xbea9a1dc	-0.331313
123	0xbdd1718d	-0.10226736
124	0xbe1d0037	-0.15332113
125	0xbe095918	-0.13412893
126	0xbd79e94a	-0.061013497
127	0xbebd1c21	-0.36935523
128	0xbe9015d8	-0.28141665
129	0xbe894278	-0.26808524
130	0xbe43575a	-0.1907629
131	0xbe5fe682	-0.21865276
132	0xbe62a2b2	-0.22132376
133	0xbdeb2f23	-0.114836
134	0xbd7a1ff2	-0.06106562
135	0xbe81ce0d	-0.25352517
136	0xbe8d743f	-0.2762775
137	0xbe0dabc4	-0.13835055
138	0xbe8061b3	-0.2507454
139	0xbd3ef8a5	-0.046623845
140	0xbe88ada8	-0.2669499
141	0x3db455aa	0.088054016
142	0xbe4fd16f	-0.20294736
143	0xbe86d180	-0.2633171
144	0xbc92d6e0	-0.017924726
145	0xbdf55b87	-0.11980348
146	0xbe11c8e4	-0.1423679
147	0x3d380cfb	0.044934254
148	0x3cd70a0f	0.026249913
149	0xbe669fc4	-0.22521883
150	0x3c5ff0da	0.013668263
151	0xbdcb055e	-0.09913133
152	0x3d89fd86	0.06737809
153	0xbe822023	-0.25415143
154	0xbe998880	-0.29986954
155	0x3d7c144e	0.0615428
156	0xbd9d4832	-0.07679786
157	0xbdd60880	-0.1045084
158	0x3cff8c96	0.031194966
159	0xbe7dd584	-0.24788481
160	0x3e606257	0.21912514
161	0xbe246bb8	-0.16056716
162	0x3d252e8e	0.0403276
163	0x3e2bc66d	0.16774912
164	0xbd5f5045	-0.05451991
165	0x3e19c46c	0.15016335
166	0x3e0a4087	0.13501178
167	0xbd2b7b5a	-0.041865684
168	0xbe84103f	-0.25793645
169	0xbd921e07	-0.071346335
170	0xbd2c9b45	-0.042140264
171	0x3e0f49f5	0.13993056
172	0x3e0e9d2b	0.13927142
173	0xbd0b3b20	-0.033991933
174	0xbdb9b4f6	-0.09067719
175	0xbe2f7302	-0.17133716
176	0xbdce2be3	-0.100669645
177	0xbe5c4fc2	-0.215148
178	0x3e579f92	0.21056965
179	0x3e058cf8	0.13042057
180	0xbe0affbd	-0.13574119
181	0xbda5da2a	-0.08098252
182	0x3e4384f6	0.1909369
183	0xbd013110	-0.03154093
184	0x3de775d2	0.11301769
185	0x3df2fae8	0.11864263
186	0xbd254651	-0.040350262
187	0x3c6ceafc	0.0144603215
188	0x3d06fa12	0.03295333
189	0xbe0850c0	-0.13312054
190	0x3e32393c	0.17404646
191	0xbe881c00	-0.26583862
192	0xbe731bcc	-0.23741072
193	0xbe5510bb	-0.20807163
194	0x3d8be9ef	0.06831729
195	0x3d89c73f	0.06727456
196	0xbe589750	-0.21151471
197	0xbe5225cf	-0.20522235
198	0xbea80b40	-0.32821083
199	0xbdb52864	-0.088455945
200	0x3c575895	0.013143678
201	0x3e13460d	0.14382191
202	0xbe5b1aaa	-0.2139689
203	0xbe5ee25f	-0.21766041
204	0xbe89b642	-0.26896864
205	0x3defa04a	0.117004946
206	0x3dbd140a	0.09232338
207	0x3c257cc5	0.010100548
208	0xbdeacc59	-0.114647575
209	0xbe12b925	-0.1432844
210	0xbdaaacb8	-0.08333725
211	0xbe6596bc	-0.22420782
212	0xbe458a29	-0.19290985
213	0xbe3cc0a6	-0.18432865
214	0x3c3b476c	0.0114306025
215	0x3db0365f	0.086041205
216	0xbcdaf7c8	-0.02672948
217	0xbc5f90f2	-0.0136453975
218	0xbe7dab13	-0.24772291
219	0xbe24680a	-0.16055313
220	0xbe658a2e	-0.22415993
221	0xbe506e2a	-0.20354524
222	0xbdbb6c9d	-0.09151576
223	0xbe25048e	-0.16115019
224	0xbe8c2a62	-0.27376086
225	0xbe3ae30d	-0.18250675
226	0xbdbfa79b	-0.0935814
227	0xbbb4bc62	-0.005515621
228	0xbdc9c848	-0.09852654
229	0x3ce9bbb2	0.028531883
230	0x3d81a52a	0.06330331
231	0xbd926951	-0.07148994
232	0x3e25a36a	0.16175619
233	0xbc0a1cdb	-0.008429731
234	0x3b5311e6	0.0032206713
235	0xbdb91d9c	-0.09038851
236	0x3e4698d1	0.19394232
237	0xbd226930	-0.039651096
238	0x3e225501	0.15852739
239	0xbdc03c4d	-0.093865015
240	0x3e5982eb	0.21241347
241	0xbd0685c2	-0.032842405
242	0xbdbaafb8	-0.09115547
243	0x3e624308	0.22095883
244	0x3e00ba15	0.12570985
245	0xbda534ea	-0.08066733
246	0xbd9b3c0c	-0.075798124
247	0xbdd1f26b	-0.10251316
248	0xbe45e379	-0.19325055
249	0x3d971060	0.0737617
250	0xbbc2ac2c	-0.0059409346
251	0x3de9b393	0.11411204
252	0xbcbeab23	-0.023274964
253	0xbe523626	-0.20528468
254	0xbde0a622	-0.10969187
255	0xbe4d3c3d	-0.2004251

arith.constant1 f4 [32, 16]
0	0xbdfa36ee	-0.12217508
1	0x3dd84e1a	0.10561772
2	0xbe81e36c	-0.25368822
3	0x3e9edc7f	0.310276
4	0x3d27dec7	0.04098394
5	0xbe190b3f	-0.14945696
6	0xbe07bdca	-0.13255993
7	0xbe984eea	-0.29747707
8	0x3e2f5db0	0.17125583
9	0x3e261e66	0.16222534
10	0xbe11c923	-0.14236884
11	0xbe80dd4a	-0.2516883
12	0xbe85e533	-0.26151428
13	0x3e80131f	0.25014588
14	0xbe14b645	-0.14522655
15	0x3e42cfc8	0.19024575
16	0xbe0e5b2b	-0.13901965
17	0xbead8119	-0.33887556
18	0xbdef6a28	-0.116901696
19	0x3e39ffa6	0.18163928
20	0x3d755a66	0.059900664
21	0x3e95dacd	0.29268494
22	0x3e2e9bf5	0.1705168
23	0x3e855c69	0.26047066
24	0x3df67668	0.12034303
25	0xbe9883da	-0.29788095
26	0xbe92e814	-0.28692687
27	0x3ce09b99	0.027417945
28	0xbde33915	-0.11094872
29	0xbe6bfb8b	-0.23045175
30	0xbce855fc	-0.028361313
31	0x3dfd89cb	0.123797975
32	0xbdab36c0	-0.08360052
33	0xbe400517	-0.18751942
34	0x3eb30d4b	0.3497108
35	0xbe26bc58	-0.16282785
36	0x3dc5ab06	0.09651761
37	0xbe86f56b	-0.26359114
38	0x3e84e937	0.2595918
39	0x3dc04115	0.093874134
40	0xbea9f532	-0.33194882
41	0xbe32af2e	-0.17449638
42	0xbe3fbff4	-0.18725568
43	0x3dc34338	0.09534305
44	0x3e675f55	0.2259496
45	0xbdd322d8	-0.1030938
46	0xbe5f4ba9	-0.21806206
47	0x3ea4341f	0.32071015
48	0x3e996ffd	0.29968253
49	0x3eacf11b	0.337777
50	0x3e9bc5f9	0.3042448
51	0xbea325b7	-0.31864712
52	0xbe16dca2	-0.14732602
53	0x3e22eae1	0.15909912
54	0x3e0c3945	0.13693722
55	0x3d008a37	0.031381812
56	0xbdb30b9d	-0.087424494
57	0xbc4e5800	-0.012594223
58	0xbeb11213	-0.34584102
59	0x3e872ad8	0.26399875
60	0x3daed483	0.08536627
61	0xbeaeabff	-0.34115598
62	0x3e39af5e	0.18133304
63	0x3da78ee0	0.08181548
64	0x3e6e41a2	0.23267224
65	0x3e912631	0.2834945
66	0x3e9e41db	0.3090962
67	0x3e2bac5e	0.16764972
68	0x3ea0d7b5	0.3141457
69	0x3e7f0c78	0.249071
70	0xbe804559	-0.25052908
71	0x3d943dff	0.07238387
72	0xbea6887e	-0.3252601
73	0x3ea115e1	0.31462005
74	0x3e314fab	0.17315547
75	0x3da50310	0.08057225
76	0xbdd66a98	-0.1046955
77	0xbe5dd6cd	-0.21663971
78	0xbd743460	-0.05962026
79	0x3cd192f7	0.025582774
80	0xbe8d6eb9	-0.27623537
81	0xbe9355ba	-0.28776342
82	0xbdd3b52c	-0.1033729
83	0x3dfffa74	0.12498942
84	0x3e6e506c	0.23272866
85	0x3e37d575	0.17952521
86	0xbeb05506	-0.34439868
87	0x3e90d661	0.28288558
88	0x3d3d0880	0.046150684
89	0xbe26f747	-0.16305266
90	0xbda4e946	-0.08052306
91	0xbec9419e	-0.39307874
92	0x3e359390	0.17732072
93	0xbdb35a45	-0.08757452
94	0x3e1242d4	0.14283305
95	0x3cc5aa55	0.024129072
96	0x3d5475d8	0.051870197
97	0xbd4679f5	-0.04845615
98	0x3df05f70	0.11736953
99	0x3d973510	0.07383168
100	0xbd4b30d6	-0.04960712
101	0xbeb4d170	-0.35316038
102	0xbc94ac23	-0.018148487
103	0x3e272a15	0.16324647
104	0xbd5e9798	-0.05434379
105	0x3e89a23f	0.26881596
106	0x3e09ad20	0.13444948
107	0xbe22f2eb	-0.15912978
108	0xbd65073e	-0.05591511
109	0x3e823193	0.25428447
110	0xbdc4a116	-0.09601037
111	0xbcf48737	-0.029849632
112	0x3e660c84	0.22465712
113	0xbd414dcc	-0.047193334
114	0xbe9c808c	-0.30566823
115	0xbeada69c	-0.33916175
116	0x3e07970d	0.13241215
117	0x3e4600ff	0.19336317
118	0x3eb4b464	0.35293877
119	0x3e42b249	0.19013323
120	0xbea67ebb	-0.32518563
121	0x3d64f8b0	0.05590123
122	0x3cf1caac	0.029515587
123	0x3e095c97	0.13414226
124	0xbdb02dd8	-0.08602494
125	0xbc7b1337	-0.015324405
126	0xbd0bafd8	-0.034103245
127	0x3e481634	0.1953972
128	0x3e8c204f	0.273684
129	0x3e019bfa	0.12657157
130	0xbe0d32e6	-0.13788947
131	0xbea1b202	-0.31581122
132	0x3cbf7683	0.02337194
133	0xbe0bf7b1	-0.13668706
134	0x3e995431	0.29947045
135	0x3ced211a	0.028946448
136	0xbc32eb88	-0.010920413
137	0x3d1c11a8	0.038102776
138	0xbd60ad22	-0.054852612
139	0x3e8618bc	0.26190746
140	0xbe86ed39	-0.26352862
141	0xbe5a4ba8	-0.21317923
142	0x3d19ceaf	0.037550624
143	0x3e7f24f7	0.24916445
144	0x3e272082	0.16320994
145	0x3d92abc4	0.07161668
146	0x3e3c8d8a	0.18413368
147	0x3eb17035	0.3465592
148	0x3e6ac7e7	0.22927819
149	0xbd4e1b40	-0.050318956
150	0x3ea25315	0.31704012
151	0xbd7e67a4	-0.06211056
152	0x3d177696	0.036978327
153	0x3d33b5b0	0.043874443
154	0xbd6dbbd6	-0.058040462
155	0xbe07c27c	-0.13257784
156	0x3e343ec7	0.17602073
157	0xbea35faa	-0.31908923
158	0xbe1288f7	-0.1431006
159	0xbda2f31e	-0.07956527
160	0xbecd0f93	-0.40050945
161	0xbe6f36f0	-0.233608
162	0x3cfac140	0.030609727
163	0x3d6acf80	0.057326794
164	0x3e81d9d0	0.2536149
165	0x3eacbc89	0.3373759
166	0xbe377cbc	-0.17918676
167	0x3e94f027	0.29089472
168	0xbe23d924	-0.16000801
169	0xbe74df83	-0.23913388
170	0x3ddb0463	0.10694196
171	0x3db5630a	0.08856781
172	0xbdc5c77e	-0.09657191
173	0xbe91c2d9	-0.2846897
174	0xbe443648	-0.19161332
175	0x3da80613	0.082042836
176	0x3e1989d1	0.14993979
177	0x3d17cc7f	0.037060257
178	0x3dcc06c0	0.09962225
179	0x3e694b7a	0.22782698
180	0xbebca9f9	-0.3684843
181	0xbeb8eb07	-0.36116812
182	0x3e12b7c4	0.14327914
183	0x3e26ad14	0.16276962
184	0x3db19b67	0.08672219
185	0xbdc35bd0	-0.09538996
186	0xbdf8eec2	-0.121549144
187	0xbe0cc222	-0.13745931
188	0xbd30852d	-0.043095756
189	0xbec46eb3	-0.38365707
190	0xbe44ff90	-0.19238114
191	0x3e8238e3	0.25434026
192	0x3e83b249	0.25721958
193	0x3ddd88f2	0.10817136
194	0x3eb0f0a9	0.3455861
195	0x3de91298	0.113804996
196	0xbe6b8c28	-0.23002684
197	0xbe3ff478	-0.18745601
198	0xbe93c3ed	-0.28860417
199	0x3e7782ba	0.24170962
200	0xbeb6e3f6	-0.35720795
201	0xbe01fdd6	-0.12694487
202	0xbe4719c6	-0.19443426
203	0x3e9db0dc	0.30798995
204	0xbec32537	-0.3811433
205	0x3e8f3091	0.2796674
206	0xbe5e34fb	-0.21699898
207	0xbc35a059	-0.011085593
208	0xbd06f118	-0.03294477
209	0x3ccb5930	0.024822801
210	0xbb17f900	-0.0023189187
211	0xbe02b051	-0.12762572
212	0x3c56e820	0.013116866
213	0xbe851454	-0.25992072
214	0xbe9adcd6	-0.3024661
215	0x3e125ac8	0.14292443
216	0xbea276df	-0.31731316
217	0xbe84d5bc	-0.25944316
218	0x3eb4200f	0.3518071
219	0xbdd4b5c4	-0.103862315
220	0xbe815526	-0.25260276
221	0xbdc26b40	-0.094931126
222	0x3eb4ced9	0.35314062
223	0x3dbb907c	0.091584176
224	0xbe8ac5aa	-0.2710393
225	0xbdf54f42	-0.11978008
226	0xbeab0364	-0.33401024
227	0x3e9ed967	0.3102524
228	0x3ea5e6f9	0.3240278
229	0x3d9ad408	0.07559973
230	0xbe5f9bf0	-0.21836829
231	0xbd135a48	-0.03597477
232	0xbea4c8d4	-0.3218447
233	0x3e1c65fa	0.15273276
234	0xbea59e88	-0.32347512
235	0x3c7cb540	0.015424073
236	0x3b133d00	0.0022466779
237	0xbe7b9119	-0.24567069
238	0x3e5dd6be	0.21663949
239	0x3d424f08	0.04743865
240	0x3eac8149	0.33692387
241	0xbd4528e4	-0.0481347
242	0xbe7771f6	-0.24164566
243	0x3e62cdb6	0.22148785
244	0xbea86f4d	-0.32897416
245	0x3dd439bc	0.103625745
246	0x3dcaee9d	0.09908793
247	0xbea9c33e	-0.3315677
248	0x3e814608	0.25248742
249	0xbd007458	-0.031360954
250	0x3e8bde75	0.2731816
251	0xbe03fd70	-0.12889647
252	0xbddd3d05	-0.10802654
253	0x3e695bfe	0.22788998
254	0xbdd81878	-0.10551542
255	0xbe48d4e1	-0.19612457

arith.constant2 f4 [98]
0	0x3d600101	0.054688457
1	0x3d73fea4	0.059569016
2	0xbe2b776b	-0.16744773
3	0x3d2f303e	0.042770617
4	0xbe3ab2e7	-0.18232308
5	0xbd3e129b	-0.046404462
6	0xbe477f4d	-0.19482155
7	0xbde85df2	-0.11346044
8	0x3b2cfbc9	0.0026395193
9	0x3cf8986a	0.030346114
10	0xbe427766	-0.1899086
11	0x3c3df563	0.011594149
12	0xbe4758e3	-0.19467501
13	0x3d8328fd	0.06404302
14	0xbe3f430e	-0.18677923
15	0x3bc8fb22	0.006133453
16	0x3cf8b46e	0.030359473
17	0xbe489ec2	-0.19591811
18	0x3cef337c	0.029199354
19	0xbc03d102	-0.008045437
20	0x3cd98bc8	0.02655591
21	0x3ce2ef2b	0.027701935
22	0x3d99523a	0.074863866
23	0x3beea709	0.0072830957
24	0xb915be18	-0.00014280563
25	0x3d2a26d3	0.041540932
26	0x3d3c78b3	0.046013545
27	0x3d8c3ce5	0.06847552
28	0xbe34c83c	-0.17654508
29	0x3c081ee1	0.008308143
30	0xbd3d53b9	-0.046222422
31	0xbd5dbeea	-0.054137148
32	0xbd295c3c	-0.041347727
33	0x3bfe842c	0.007767221
34	0xbdb9ee7f	-0.09078693
35	0x3c93c453	0.01803795
36	0x3d6d7a97	0.05797824
37	0xbd4d071f	-0.05005562
38	0x3d8e48de	0.06947492
39	0xbcb51a2a	-0.022107203
40	0xbbe0434f	-0.0068439613
41	0xbc8b54de	-0.017008241
42	0x3a58065d	0.00082406943
43	0xbbb59fe5	-0.0055427426
44	0xbd32575b	-0.04354034
45	0xbe26a81a	-0.16275063
46	0x3d07fddd	0.033201087
47	0x3dac4cd3	0.084130906
48	0xbe17d3a6	-0.14826831
49	0x3d75a43e	0.059971087
50	0xbd185799	-0.037192915
51	0xbd0e08e1	-0.034676436
52	0x3d013803	0.031547558
53	0xbe1d9393	-0.15388326
54	0xbdb554f9	-0.08854098
55	0xbd563033	-0.05229206
56	0xbe2ca2bc	-0.16858953
57	0x3d0fcedd	0.03510939
58	0x3d9d2ea0	0.07674909
59	0xbda1ad2a	-0.078943565
60	0xbdc14042	-0.09436084
61	0xbe0985c2	-0.13429931
62	0xbba21faf	-0.0049476246
63	0x3d840195	0.06445614
64	0xbd36c10e	-0.044617705
65	0x3cfefa97	0.03112535
66	0x3ccafc55	0.024778524
67	0x3d52a70b	0.051428836
68	0x3d9f7a7a	0.077870324
69	0x3da09780	0.07841396
70	0x3d0669d9	0.032815788
71	0x3d7b791b	0.061394792
72	0xbd851b3d	-0.06499336
73	0xbbe8784c	-0.0070944186
74	0xbb25e041	-0.0025310668
75	0xbe2941c1	-0.1652899
76	0xbe2d9496	-0.16951212
77	0xbd8a05d8	-0.06739396
78	0x3d849e3c	0.06475493
79	0x3c9fd8d9	0.01951258
80	0x3cfd2d88	0.0309055
81	0xbe3accfa	-0.18242255
82	0xbcfa988a	-0.030590314
83	0x3d52a4b0	0.05142659
84	0xbc5889e4	-0.013216469
85	0x3d966829	0.07344086
86	0xbd0c4ec4	-0.034254804
87	0xbe43dcf4	-0.19127256
88	0xbbbecdc0	-0.005822867
89	0x3d87a3c3	0.06623032
90	0xbd6eefde	-0.058334224
91	0xbd31d718	-0.04341802
92	0xbd9a79ae	-0.0754274
93	0xbe3a05ff	-0.1816635
94	0x3c063b7a	0.008192891
95	0xbc9ee720	-0.019397318
96	0xbe43dbb4	-0.19126779
97	0xbdab3b38	-0.083609045

sequential_1/dense_1_2/BiasAdd/ReadVariableOp f4 [32]
0	0x3d9e9306	0.07742886
1	0xbc8397da	-0.01606362
2	0xbc11f12d	-0.008907598
3	0xbd4f59fb	-0.05062292
4	0xbc9785fd	-0.018496508
5	0xbc1d08dd	-0.009584633
6	0xbdca1946	-0.09868102
7	0x3d1232db	0.03569303
8	0xbd171117	-0.036881533
9	0xbc822fbf	-0.015891908
10	0x3d26beea	0.040709414
11	0xbd7ece42	-0.06220842
12	0xbd3d4226	-0.046205662
13	0x00000000	0.0
14	0x00000000	0.0
15	0x3c434981	0.01191938
16	0x00000000	0.0
17	0xbd60b19a	-0.054856874
18	0x3d83742a	0.06418641
19	0x3d2ef350	0.04271251
20	0x3c864e38	0.01639472
21	0xbd9a92c3	-0.07547524
22	0x3d890318	0.06690043
23	0xbd8363ff	-0.06415557
24	0x00000000	0.0
25	0xbcb8cdaf	-0.022559015
26	0x3d86ba63	0.06578519
27	0xbd3b9dc0	-0.04580474
28	0xbb990bd7	-0.004670601
29	0xbbddcf0b	-0.006769066
30	0x3deea563	0.11652639
31	0x3ae629a1	0.0017560014

sequential_1/dense_1/BiasAdd/ReadVariableOp f4 [16]
0	0xbd524d0a	-0.051343
1	0xbd052662	-0.032507308
2	0x00000000	0.0
3	0x00000000	0.0
4	0xbd54eb9f	-0.05198252
5	0x3d13de3e	0.03610062
6	0x3c00b137	0.007854751
7	0xbd51e9ef	-0.051248487
8	0xbd0a65e2	-0.03378857
9	0x00000000	0.0
10	0xbd4b6246	-0.049654268
11	0xbcaa1864	-0.020763583
12	0x3c9d3916	0.01919226
13	0xbb3c85c2	-0.002876625
14	0xbd070053	-0.032959294
15	0xbcdd6a52	-0.027028237

sequential_1/dense_1/MatMul f4 [16, 4]
0	0xbebd396d	-0.36957875
1	0x3ef08e81	0.46983722
2	0xbe139c03	-0.14414982
3	0x3eac7c04	0.33688366
4	0xbe701996	-0.2344726
5	0x3e16f40b	0.14741533
6	0x3ed5053e	0.41605562
7	0xbe969417	-0.2940986
8	0xbedf1458	-0.4357021
9	0xbea6ffd2	-0.3261705
10	0xbdd9f9e8	-0.10643369
11	0xbe911e91	-0.28343633
12	0xbe86920a	-0.26283294
13	0xbd9b4a64	-0.07582548
14	0xbe9ae824	-0.30255234
15	0xbe9b2116	-0.3029868
16	0xbeccbf02	-0.39989477
17	0xbf18d19f	-0.59694856
18	0x3c4a36d0	0.01234217
19	0x3e7584e6	0.23976478
20	0x3eb4ca8e	0.35310787
21	0xbe5a2e49	-0.21306719
22	0xbe8a9e0e	-0.2707371
23	0xbdb19564	-0.08671072
24	0x3e241e75	0.16027243
25	0xbe542d07	-0.20720302
26	0xbdfcc71c	-0.123426646
27	0xbed96b1e	-0.42464536
28	0x3eb25782	0.34832388
29	0xbea34500	-0.3188858
30	0xbed89a4e	-0.42305225
31	0x3eca00b7	0.3945367
32	0x3ee5e3af	0.4490027
33	0xbdc72484	-0.09723762
34	0x3e049065	0.12945707
35	0x3e9271f7	0.28602573
36	0xbe8e31ad	-0.27772275
37	0xbeda5d9c	-0.42649543
38	0xbef249aa	-0.47321826
39	0xbe1eab50	-0.15495038
40	0x3e8b831f	0.27248475
41	0x3e5991aa	0.21246973
42	0xbe200605	-0.15627296
43	0x3c35a491	0.011086599
44	0x3ed07acf	0.40718696
45	0xbed1cf63	-0.40978536
46	0x3ede51dc	0.4342183
47	0x3d530cbe	0.051525824
48	0x3e5e7921	0.21725895
49	0xbedec046	-0.43506068
50	0x3e7c394d	0.24631234
51	0x3e572757	0.210111
52	0x3e507146	0.2035571
53	0x3ef505cf	0.47855994
54	0xbe63ad03	-0.22233967
55	0x3ea24dd2	0.31699997
56	0x3d954e22	0.07290293
57	0x3d58ddd3	0.052945923
58	0xbdf9f560	-0.12205005
59	0xbecd8923	-0.4014369
60	0x3bd75404	0.0065712947
61	0x3dc1e79f	0.09468006
62	0xbe7efc9a	-0.24901047
63	0x3ecdd38a	0.40200454
